…
        "                     Dense(5, activation='softmax')\n",
        "])\n",
        "\n",
        "model1.summary()"
      ],
      "execution_count": null,
      "outputs": [
        {
          "output_type": "stream",
          "name": "stdout",
          "text": [
            "Model: \"sequential_10\"\n",
            "_________________________________________________________________\n",
            " Layer (type)                Output Shape              Param #   \n",
            "=================================================================\n",
            " conv2d_43 (Conv2D)          (None, 98, 98, 32)        896       \n",
            "                                                                 \n",
            " max_pooling2d_43 (MaxPoolin  (None, 49, 49, 32)       0         \n",
            " g2D)                                                            \n",
            "                                                                 \n",
            " conv2d_44 (Conv2D)          (None, 47, 47, 64)        18496     \n",
            "                                                                 \n",
            " max_pooling2d_44 (MaxPoolin  (None, 23, 23, 64)       0         \n",
            " g2D)                                                            \n",
            "                                                                 \n",
            " batch_normalization_10 (Bat  (None, 23, 23, 64)       256       \n",
            " chNormalization)                                                \n",
            "                                                                 \n",
            " conv2d_45 (Conv2D)          (None, 21, 21, 128)       73856     \n",
            "                                                                 \n",
            " max_pooling2d_45 (MaxPoolin  (None, 10, 10, 128)      0         \n",
            " g2D)                                                            \n",
            "                                                                 \n",
            " conv2d_46 (Conv2D)          (None, 8, 8, 256)         295168    \n",
            "                                                                 \n",
            " max_pooling2d_46 (MaxPoolin  (None, 4, 4, 256)        0         \n",
            " g2D)                                                            \n",
            "                                                                 \n",
            " conv2d_47 (Conv2D)          (None, 2, 2, 512)         1180160   \n",
            "                                                                 \n",
            " max_pooling2d_47 (MaxPoolin  (None, 1, 1, 512)        0         \n",
            " g2D)                                                            \n",
            "                                                                 \n",
            " dropout_10 (Dropout)        (None, 1, 1, 512)         0         \n",
            "                                                                 \n",
            " flatten_10 (Flatten)        (None, 512)               0         \n",
            "                                                                 \n",
            " dense_20 (Dense)            (None, 128)               65664     \n",
            "                                                                 \n",
            " dense_21 (Dense)            (None, 5)                 645       \n",
            "                                                                 \n",
            "=================================================================\n",
            "Total params: 1,635,141\n",
            "Trainable params: 1,635,013\n",
            "Non-trainable params: 128\n",
            "_________________________________________________________________\n"
          ]
…
        "    tf.keras.layers.Dense(5, activation='softmax'),\n",
        "])\n",
        "\n",
        "model_ann.summary()"
      ],
      "execution_count": null,
      "outputs": [
        {
          "output_type": "stream",
          "name": "stdout",
          "text": [
            "Model: \"sequential_16\"\n",
            "_________________________________________________________________\n",
            " Layer (type)                Output Shape              Param #   \n",
            "=================================================================\n",
            " flatten_16 (Flatten)        (None, 30000)             0         \n",
            "                                                                 \n",
            " dense_44 (Dense)            (None, 32)                960032    \n",
            "                                                                 \n",
            " dense_45 (Dense)            (None, 64)                2112      \n",
            "                                                                 \n",
            " dense_46 (Dense)            (None, 128)               8320      \n",
            "                                                                 \n",
            " dense_47 (Dense)            (None, 256)               33024     \n",
            "                                                                 \n",
            " dense_48 (Dense)            (None, 512)               131584    \n",
            "                                                                 \n",
            " dense_49 (Dense)            (None, 5)                 2565      \n",
            "                                                                 \n",
            "=================================================================\n",
            "Total params: 1,137,637\n",
            "Trainable params: 1,137,637\n",
            "Non-trainable params: 0\n",
            "_________________________________________________________________\n"
          ]
        }
…
